task.pth (torch, 3178 bytes, 6 tensors)

l1.weight f4 [8, 7]
00000000: 29ed 6abe 5da8 2f3f d3b4 62be 887e 363f
00000010: cb42 20be 0fed 9dbe b305 e43e 75ae 983e
00000020: 1dc0 b0be 41c8 0c3f ccbd b0be b552 b3be
00000030: bb19 ef3e 5719 63be 666c 373f f178 78be
00000040: 26d5 a03e ab53 2fbe dc38 173f f36f 1d3f
00000050: f20a 04be 54c1 2f3e 256c 3bbe b535 2e3f
00000060: dddb 4ebe 2ee5 363f 223c 0a3f 81de 4bbe
00000070: da23 7abe aecc 4cbe a4d7 f73d ca27 553e
00000080: bc67 893d bea4 03be b44e b0be dfce e5bd
00000090: 4406 0d3f 032a b6be 9129 213f d383 86be
000000a0: ff95 bbbe 4605 a33e f616 df3e 18a4 45be
000000b0: e227 6e3e 2fbe e2be 97fa 943e b035 4e3e
000000c0: 75d4 e3be af63 88be 184f 2e3f 1d9d 6abe
000000d0: 38f7 723e 8d15 4dbe 71ca 62be cca5 353f
-0.22942032 0.68616277 -0.22139291 0.7128682 -0.1565048 -0.30844924 0.44535598 0.298206
-0.3452157 0.54993063 -0.34519804 -0.35024038 0.46699318 -0.22177635 0.7164978 -0.24264885
0.3141262 -0.1712176 0.59071136 0.61498946 -0.128948 0.17163593 -0.18302973 0.680507
-0.20201059 0.7144345 0.53998005 -0.19909097 -0.24427739 -0.19999954 0.12101677 0.2081596
0.06709239 -0.12855813 -0.34435046 -0.11221098 0.55087686 -0.35578927 0.6295405 -0.2627245
-0.36637875 0.3183996 0.43572205 -0.19300878 0.23257402 -0.44285724 0.29097435 0.20137668
-0.4449803 -0.26638553 0.6808944 -0.22911496 0.23727119 -0.20027752 -0.22147538 0.7095611

l1.bias f4 [8]
00000000: 92e2 6a3e f928 b03e 03ce 743e c7f4 733e
00000010: 5acf 99be f9e5 c63e d1ba e23e 149f a93e
0.22937992 0.3440626 0.23906712 0.23823844 -0.3004101 0.3884733 0.44283155 0.3312918

l2.weight f4 [8, 8]
00000000: cbd8 f83e a705 12be c73c 83bd 80db 2bbe
00000010: 1c95 033e fa97 1e3f 79f4 d4be 2592 b93e
00000020: 3d9d 92be eee4 213f 3d6a 383f d8ee 1f3f
00000030: 0e24 163e 35c7 073d 9ba4 583f c8be c3be
00000040: a39b c0be 1e6f 303f 7414 e03e abf6 fe3e
00000050: 6756 b43e b579 bfbd e4a3 c53e 26f9 11bf
00000060: 9612 2cbf 7bc2 723e 6bb1 1f3f e6c1 363f
00000070: a1bb a03e 19d4 9e3e 5c73 3a3f 1a29 5fbe
00000080: 21fa 4e3f 6c89 24be 9c1b e1be 5189 adbe
00000090: 7d0a 863e 78be 343f ded5 47bc dad7 8c3e
000000a0: 43fc 673e 98e5 13be a31d 84be b0d5 89be
000000b0: 6106 a83e ce88 b53e 7abe 86bc 76f8 463f
000000c0: 654a 1ebd 51b7 ac3e 5b9a f33e bddd 0e3f
000000d0: f065 263d 0993 bfbe 71e3 533e d032 d7be
000000e0: 4323 46bd 5ed6 c83e 0a7e 263f fded 273f
000000f0: 4acd 493e f4b2 98be 22d8 7c3f 5da8 94be
0.486029 -0.14259969 -0.06408077 -0.16782951 0.1284985 0.6195065 -0.41592768 0.36244312
-0.28635588 0.63239944 0.72037107 0.6247382 0.14662191 0.033148963 0.8462617 -0.38231492
-0.3761874 0.6891955 0.43765604 0.49797568 0.3522217 -0.09349386 0.386016 -0.57020795
-0.6721586 0.23707001 0.62380093 0.71389616 0.3139315 0.31021193 0.72832274 -0.21793023
0.80850416 -0.16068047 -0.43966377 -0.33893827 0.26179877 0.7060313 -0.012196986 0.27508432
0.22654824 -0.14443052 -0.2580386 -0.26920843 0.32817367 0.35455936 -0.016448248 0.7772287
-0.038645167 0.3373361 0.475787 0.55807096 0.04062456 -0.37416866 0.20692231 -0.42030954
-0.048373472 0.3922605 0.6503607 0.65597516 0.19707218 -0.2982403 0.9876729 -0.290347

l2.bias f4 [8]
00000000: 5154 d93e f145 be3e ea6d 273f cba0 973e
00000010: fc2e fc3e b743 cd3e 86d4 0b3f 3b3d a23e
0.4244714 0.37162736 0.6540209 0.29614863 0.49254596 0.40090725 0.5462116 0.3168734

l3.weight f4 [2, 8]
00000000: 7388 5abf 5152 e73e 65bc c33e ee7c 823e
00000010: fabc 04bf d074 03bf f1d3 3c3f 31cb ea3e
00000020: 9c5f b03e 4666 64bf 25f0 37bf 08bd 1cbf
00000030: c73c 133f 948a ec3e d771 aebe 525e dbbe
-0.85364455 0.4517999 0.3822967 0.2548594 -0.51850855 -0.51350117 0.73760897 0.45858148
0.34447944 -0.89218557 -0.71850806 -0.6122594 0.57514614 0.46199477 -0.34071228 -0.42845398

l3.bias f4 [2]
00000000: 6086 99be 53b7 503f
-0.29985332 0.8152973
