task.pth (torch, 3178 bytes, 6 tensors)

l1.weight f4 [8, 7]
000000 ba db 35 3f 08 34 b1 be 21 a2 56 3f a3 68 c8 be
       0.710384 -0.3461001 0.8384114 -0.3914233
000010 51 28 5e 3f 61 f4 66 3f d5 98 4a bf b8 dd ef bd
       0.8678027 0.9021664 -0.79139453 -0.11712211
000020 e4 15 c2 3e 39 e9 3c be eb c8 05 3f 45 4d 4a be
       0.37907326 -0.18448342 0.522597 -0.19756038
000030 36 9e 8a be 84 20 ba 3e 1f ca 04 bf df a0 21 3f
       -0.2707383 0.36352932 -0.5187091 0.63136095
000040 7f c8 04 bf ec 95 be 3c a0 c6 04 bf eb c8 04 bf
       -0.5186843 0.023264848 -0.5186558 -0.51869076
000050 e2 50 91 3e 09 39 c1 be a3 ca f8 3e c4 f6 83 3e
       0.2838202 -0.37738827 0.485921 0.25774205
000060 61 d4 0a 3f 93 72 a2 3e d9 06 92 3e 1a d2 a0 3e
       0.54230314 0.31728038 0.2852085 0.31410295
000070 d1 5e fc bd 8f 0c 92 3e e6 dd ec bd 7a 22 bd 3e
       -0.12322772 0.28525206 -0.11565761 0.36940366
000080 07 5a 57 be db d5 ec bd d0 42 f2 3e 45 1f 8f bd
       -0.21030436 -0.11564227 0.473166 -0.06988386
000090 3e b7 dc 3e c5 48 8f bd 59 cb 19 3f 8f 48 8f bd
       0.43108553 -0.069963016 0.6007591 -0.06996261
0000a0 d8 29 fb bd 8f 86 19 3f 2d c5 f9 be af 35 91 3e
       -0.122638404 0.59970945 -0.48783246 0.2836127
0000b0 cb c4 f9 be d7 40 4a 3d 25 c5 f9 be e4 bb d7 be
       -0.48782954 0.049378242 -0.48783222 -0.42135537
0000c0 9a 41 01 3f b3 8b bc be bd 97 a9 be a8 54 a6 be
       0.50490725 -0.36825332 -0.3312358 -0.32486463
0000d0 86 3e 06 3f ca b9 da bd c0 56 fa bd be e7 60 3e
       0.52439153 -0.10679968 -0.122235775 0.21963403

l1.bias f4 [8]
000000 24 f4 57 3f 14 e1 3f 3e 37 c8 04 3f 70 ec 7d 3e
       0.84356904 0.18738204 0.51868004 0.24797225
000010 27 d8 ec 3d 99 25 8f 3d d6 c4 f9 3e dc a9 da 3d
       0.11564665 0.06989593 0.48782986 0.10676929

l2.weight f4 [8, 8]
000000 1f cf 22 3f f4 49 7b 3e 3d d5 01 bf d3 21 9b 3e
       0.6359729 0.2453993 -0.50716 0.30299243
000010 30 22 cc be d1 02 71 be cc 67 a0 be f1 68 9d be
       -0.39869833 -0.2353623 -0.3132919 -0.30744126
000020 27 11 fe bd 6e 91 16 3f 15 16 d9 3e 8f b9 fc ba
       -0.12405615 0.5881566 0.4239966 -0.0019281375
000030 2e ca e0 3e af 11 d4 3e 4a f4 01 3f df b3 f7 3e
       0.4390425 0.41419742 0.5076338 0.48379418
000040 6e f9 7e be c9 01 24 3f 8d 22 df 3e bf 2b 30 3f
       -0.24899837 0.64065224 0.43581048 0.6881675
000050 af 8d 25 3f b7 d9 98 3e ce bf e1 3e 9d 87 04 3f
       0.64669317 0.29853603 0.44091648 0.5176943
000060 d5 0c 11 bf 9f 9e c0 3e e4 94 4e 3e 09 29 06 3f
       -0.56660205 0.37621018 0.20173985 0.52406365
000070 9e 50 8c 3e de 7f 83 3d ca be 19 3f 1a 24 36 3f
       0.27405256 0.06420873 0.60056746 0.71148837
000080 b9 dd 5f 3f d8 4b 6c be e9 6f 21 bf a6 23 3d 3f
       0.87447697 -0.23075807 -0.63061386 0.7388252
000090 60 0f 53 be 4f a6 c6 be a0 8a 9b be 37 c5 15 bf
       -0.20611334 -0.38798758 -0.303792 -0.5850405
0000a0 04 5f b0 bd 38 3a 23 3f f5 d2 ee 3d c2 0f d7 3e
       -0.08611873 0.6376071 0.116613306 0.4200421
0000b0 08 12 e7 3e a7 a8 db 3e cb 45 7d 3e c6 de 1c 3d
       0.45130944 0.4290211 0.24733655 0.03829839
0000c0 42 68 9a be ca 03 ac bc e9 2d 70 3e 3c 67 a0 3e
       -0.30157667 -0.0209979 0.23455013 0.31328762
0000d0 d5 f0 cf 3e 38 a4 e4 bc 0e e9 03 3f 1c f5 08 3e
       0.40613428 -0.027910337 0.5152749 0.13374752
0000e0 6d 85 40 bd 92 84 a1 3e 6a ff 38 3f 5d a2 5f 3e
       -0.047002245 0.31546456 0.7226473 0.2183928
0000f0 4a 2b e0 3e 50 66 23 3f 4d 4a ea 3e f8 80 3f 3f
       0.43783027 0.6382799 0.45759812 0.74806166

l2.bias f4 [8]
000000 a5 15 93 3e 15 d1 ae 3d 49 b5 18 3d 4e 46 e6 3e
       0.2872745 0.08535973 0.037282262 0.44975513
000010 7b 3e 85 3f 16 67 b8 bd b2 66 71 3e a2 84 83 bd
       1.0409693 -0.09004037 0.23574331 -0.06421782

l3.weight f4 [2, 8]
000000 53 ba 3f 3f 49 9c 23 bf 48 66 a6 be 00 ff 09 bf
       0.74893683 -0.6391035 -0.3249991 -0.53904724
000010 31 44 f9 3e ea b2 bb be ec d9 96 be fd 5e 15 bf
       0.48684838 -0.36659938 -0.29463136 -0.58348066
000020 5c de 0f bf 38 29 9e 3e 07 e9 c6 3e a8 b8 9c 3d
       -0.5619867 0.30890822 0.3884966 0.07652408
000030 99 11 59 bf 28 5d 2c 3f 43 5c 27 3f 14 87 65 3f
       -0.84792477 0.67329645 0.65375155 0.8965924

l3.bias f4 [2]
000000 54 fb 63 3f 9f 65 c8 be
       0.8905537 -0.3914003
