task.pth (torch, 2751 bytes, 6 tensors)

l1.weight f4 [8, 7]
000000 8c 48 a3 3e 0d 9b cc be 54 02 ff 3e 97 34 a5 bc
       0.31891286 -0.39962044 0.49806464 -0.020166678
000010 9b ce 26 3f 81 e2 89 3e a1 7e cc be 95 c7 07 bf
       0.65159005 0.2693062 -0.3994036 -0.53038913
000020 1f c7 46 3f ca ad 6b bd 51 9c d3 3e 88 4f 2d be
       0.77647585 -0.057538785 0.41330197 -0.1692487
000030 43 e5 13 bf 21 eb 3f 3e cd 67 9d be 42 ac fb 3e
       -0.577717 0.18742038 -0.30743256 0.4915486
000040 bf fa e2 be 85 e4 0c 3f ed 2d 94 be 0f c0 58 bc
       -0.4433193 0.55036193 -0.2894129 -0.013229384
000050 34 17 85 3e ff 5a 04 3f 9f 4c 8e be 0f ce b1 3e
       0.25994265 0.5170135 -0.27792832 0.34727523
000060 a0 60 f3 be a0 05 23 3f ac 2b 2f 3f 84 64 f3 be
       -0.47534657 0.6368046 0.68426013 -0.47537625
000070 ca 52 d1 3e ab d8 9e be 5a 31 c0 3e 6d 7a 11 bc
       0.40883476 -0.3102468 0.37537652 -0.008879286
000080 97 c7 23 3d 37 34 04 3e fa d9 24 bf 91 d4 c4 bd
       0.039985266 0.12910543 -0.64395106 -0.09610856
000090 9f bf e6 3e d6 3b 90 be db c3 34 3f 14 b7 27 be
       0.4506807 -0.2817065 0.7061135 -0.16378433
0000a0 2e 31 90 be 10 73 b0 3e 3c 8f 92 3d 92 11 9f be
       -0.2816252 0.34462786 0.07156226 -0.31068093
0000b0 b7 15 0a 3e a1 f3 18 be 17 95 c9 3d 3c 46 18 3e
       0.13484846 -0.14936687 0.0984289 0.14870542
0000c0 b0 68 d1 3c 20 6b 42 be 7c 35 d8 3e 9d c8 5b be
       0.025562614 -0.18986177 0.42228305 -0.21463247
0000d0 e2 8d 19 3f 04 37 6e be a0 c7 51 be fd 32 ab 3e
       0.5998212 -0.23263174 -0.20486307 0.33437338

l1.bias f4 [8]
000000 02 7d cc 3e 12 37 25 3f 78 f9 e2 3e e4 61 f3 3e
       0.39939123 0.64537156 0.44330955 0.47535622
000010 87 9b 31 3f 1b 33 90 3e 7a e6 28 be 58 c8 5b 3e
       0.6937794 0.2816399 -0.1649417 0.21463144

l2.weight f4 [8, 8]
000000 17 4a 5a 3e d9 03 7c 3d 68 b8 fa be bd 14 b4 3e
       0.21317326 0.061527107 -0.48968816 0.35172072
000010 3f 5b 54 3e e7 6e 82 be 2f ef e3 bd 8a 14 15 be
       0.20737933 -0.25475237 -0.11129605 -0.14558616
000020 80 68 04 3f 19 12 42 be f7 15 1a be 98 12 2e 3f
       0.51721954 -0.18952216 -0.15047441 0.6799712
000030 03 49 06 3f 2d e6 38 be a2 27 b0 bd 1b be 9d be
       0.5245516 -0.18056555 -0.08601309 -0.308091
000040 c0 10 bf be 43 ea 28 3f 3b de 4f 3f a6 8c 18 bf
       -0.37317467 0.65982455 0.8119847 -0.5958961
000050 f5 ae 01 be bd 61 10 3f 16 00 64 3e 08 69 1d 3f
       -0.12664397 0.56399137 0.22265658 0.6148839
000060 25 50 8e be 3e c6 d9 3e a0 a3 62 3f c7 31 27 bf
       -0.2779552 0.4253406 0.8853092 -0.6531033
000070 71 86 2b be be 23 3d 3f f7 23 3c be 1c e5 98 3e
       -0.16750504 0.73882663 -0.18373094 0.29862297
000080 36 b1 8a be 0e 1b be bd 23 1d 26 3e 94 46 e7 bd
       -0.27088326 -0.09282504 0.16222052 -0.112927586
000090 7c 2c 40 3b 55 11 1f be a1 3b 7f 3e 8c a9 32 be
       0.002932339 -0.15533955 0.2492509 -0.1744749
0000a0 5c 4c 90 3e f6 9b c9 be 44 e4 c0 3d 4c ff 5f 3e
       0.28183258 -0.393768 0.09418538 0.21874732
0000b0 ec 6c c0 be d6 0f 90 bd d3 e8 4d 3d b6 a7 65 3e
       -0.375831 -0.070342705 0.050270867 0.22427258
0000c0 c8 ee df 3e 5b 7a 3b be 9f de 93 be ae b6 33 3f
       0.43736863 -0.18308394 -0.28880784 0.7020062
0000d0 ca 70 00 3f 08 b6 fe be 18 ea 9f 3e 93 1d b7 be
       0.501721 -0.49748254 0.31233287 -0.3576475
0000e0 1b 6c b0 3e 31 21 2d be 39 3e 97 be d4 11 c7 3e
       0.34457478 -0.16907193 -0.2953966 0.3888079
0000f0 35 aa 30 3f 5b 3a 53 be a0 e8 9d bd 04 09 bb be
       0.69009715 -0.2062773 -0.07710385 -0.36530316

l2.bias f4 [8]
000000 66 49 fb 3e 1a 7c 65 3e 25 6c 24 3f f0 2e 37 3f
       0.49079436 0.22410622 0.64227515 0.71555996
000010 3e ad af 3c 2d df 20 be 54 16 29 3f 65 ad bd 3e
       0.021444913 -0.15710135 0.66049695 0.37046352

l3.weight f4 [2, 8]
000000 c7 22 00 3f 1c 24 06 3f f5 05 29 bf 04 ca 2c bf
       0.50053066 0.5239885 -0.66024715 -0.6749575
000010 48 08 15 3b 67 0f 91 be 70 b2 6d 3e 26 e6 e1 3e
       0.0022740532 -0.28332064 0.232126 0.44120902
000020 11 3e 2e bf 17 4c 20 bf 35 5f 48 3f e9 e2 7c 3e
       -0.68063456 -0.62616104 0.78270274 0.24695934
000030 97 f3 5f be 16 1a 10 3e 47 c7 0f bf b6 4d 3f bf
       -0.21870266 0.14072451 -0.5616345 -0.7472795

l3.bias f4 [2]
000000 40 7f 8c 3d 6e 26 b6 bd
       0.068602085 -0.08894049
