NOTEPAD/task.pth (torch, 2751 bytes, 6 tensors)

l1.weight f4 [8, 7]
0	0xbe61be61	-0.2204528
1	0xbe2b3fd7	-0.16723572
2	0x3ea9d2ea	0.33168727
3	0xbe5288a2	-0.20559934
4	0x3ce716a0	0.02820903
5	0xbe92abb2	-0.28646618
6	0xbe7ee507	-0.24892054
7	0xbeb2e21b	-0.3493813
8	0x3eca7a51	0.39546445
9	0xbf17138a	-0.5901419
10	0x3e2724ef	0.16322683
11	0xbee937dd	-0.45550433
12	0xbf199fe6	-0.6000961
13	0x3e70e6ec	0.2352559
14	0x3d080f1b	0.03321753
15	0x3f2dfe12	0.67965806
16	0xbe9c2012	-0.30493218
17	0x3f19620b	0.59915227
18	0x3df4baff	0.11949729
19	0xbe8bc39e	-0.27297682
20	0x3f37bb19	0.71769863
21	0x3f0a5e52	0.5405017
22	0xbeb1af83	-0.34704217
23	0x3e893cd9	0.26804236
24	0xbeb1aea6	-0.3470356
25	0x3f0440a5	0.5166114
26	0x3efaaec7	0.4896147
27	0xbeab931d	-0.33510676
28	0x3f0010b9	0.50025517
29	0xbdfbdbb5	-0.12297765
30	0xbe72fc68	-0.23729098
31	0xbec1c372	-0.37844425
32	0x3e36e32d	0.17860098
33	0x3eaf20d9	0.34204748
34	0xbdfab784	-0.12242034
35	0xbec08a84	-0.3760568
36	0x3e9059bc	0.28193462
37	0xbebf0cc9	-0.37314442
38	0x3eae2acd	0.3401703
39	0xbb9b696f	-0.0047427933
40	0xbebeb81b	-0.37249836
41	0x3f18c0d6	0.59669244
42	0x3ec79acc	0.38985288
43	0xbf18b231	-0.596469
44	0x3f4ce147	0.80031246
45	0xbf09e0b7	-0.5385851
46	0x3ed947ca	0.42437583
47	0x3ee55861	0.4479399
48	0xbe8d5a95	-0.2760817
49	0x3ef61676	0.4806401
50	0xbd7c977c	-0.061667904
51	0x3ee5af2b	0.44860205
52	0xbe539179	-0.20660962
53	0x3f42dc98	0.7611785
54	0x3ee76bb6	0.45199364
55	0xbe5b9e72	-0.21447161

l1.bias f4 [8]
0	0xbeb47ff5	-0.35253873
1	0x3f1f2475	0.62165004
2	0x3dafbc6e	0.08580862
3	0x3eb1afc0	0.347044
4	0x3dfbdc12	0.122978345
5	0x3ebeba7c	0.3725165
6	0x3f18b255	0.59647113
7	0x3e5b9f84	0.21447569

l2.weight f4 [8, 8]
0	0xbcbf67f5	-0.023365
1	0x3f38dc78	0.7221141
2	0x3f2fd7ce	0.68688667
3	0xbf004103	-0.500992
4	0xbebf253e	-0.373331
5	0x3ec9273b	0.39287743
6	0xbe15a258	-0.1461271
7	0xbebcd9f2	-0.3688503
8	0xbdecf102	-0.11569406
9	0x3f38926f	0.7209844
10	0x3f107a17	0.56436294
11	0xbeaee4c0	-0.34158897
12	0xbe92885c	-0.2861966
13	0x3f3e2add	0.74284154
14	0x3da20142	0.07910396
15	0xbe9d6416	-0.30740422
16	0x3eac7bfe	0.3368835
17	0x3e8c5766	0.2741043
18	0x3e8b08b3	0.27155074
19	0xbec1e414	-0.37869322
20	0x3dcf6255	0.10126177
21	0x3f0bf711	0.5467387
22	0xbeccfa71	-0.40034822
23	0xbebca26a	-0.36842662
24	0xbe9fa723	-0.31182203
25	0xbe25e863	-0.1620193
26	0xbeb1d4e6	-0.3473274
27	0x3f09af1a	0.5378281
28	0x3f1f8ab6	0.6232103
29	0xbd0155cb	-0.03157596
30	0x3f11664b	0.5679671
31	0x3f83f088	1.0307779
32	0xbdb6cd79	-0.089259095
33	0xbe94cfc7	-0.29064772
34	0x3d00588b	0.03133444
35	0x3f0b39a9	0.5438486
36	0x3cd9df37	0.026595695
37	0xbeb03732	-0.3441711
38	0x3f4fcebf	0.81174845
39	0x3f2290a4	0.63501954
40	0x3e838b7d	0.2569236
41	0x3f0b5c50	0.5443773
42	0x3f07c17d	0.53029615
43	0xbe9d32f1	-0.30702928
44	0x3e3a3bc8	0.18186867
45	0x3f0c55e9	0.5481859
46	0xbd01fd0c	-0.031735465
47	0xbe8542a9	-0.2602742
48	0x3ea1523b	0.3150805
49	0x3f492da9	0.78585297
50	0x3f0b9d22	0.5453664
51	0xbe8f4bfc	-0.2798766
52	0xbedfa57b	-0.4368094
53	0x3dd0325d	0.10165856
54	0xbdf2470d	-0.11829958
55	0xbee3bc85	-0.44479766
56	0xbb2a1c44	-0.002595679
57	0x3e52f5fe	0.20601651
58	0x3f1d3233	0.6140472
59	0xbe931e7b	-0.28734192
60	0xbe8884b3	-0.2666374
61	0x3e8a0dbc	0.26963603
62	0xbed06d93	-0.40708598
63	0xbe177a34	-0.1479271

l2.bias f4 [8]
0	0x3ec0243f	0.37527654
1	0x3dbbab12	0.091634884
2	0x3f1817d5	0.59411365
3	0x3e965d8a	0.2936824
4	0x3e9a907d	0.3018836
5	0x3dc41276	0.09573834
6	0x3f000633	0.5000946
7	0x3f0b7dcf	0.54488844

l3.weight f4 [2, 8]
0	0xbe7bc262	-0.2458587
1	0xbebc9823	-0.3683482
2	0xbf1004e5	-0.5625747
3	0x3f182963	0.5943815
4	0x3f498ae3	0.7872755
5	0xbf3df6d3	-0.7420475
6	0xbeec1889	-0.4611247
7	0xbed639fd	-0.41841117
8	0x3f2cd712	0.6751567
9	0x3f237032	0.6384307
10	0x3e445b6d	0.19175501
11	0xbf18a7dd	-0.5963114
12	0xbf3e1dcf	-0.74264234
13	0x3e98d517	0.29850075
14	0x3e7d91af	0.24762605
15	0x3eee8297	0.46584007

l3.bias f4 [2]
0	0x3f460d06	0.7736362
1	0xbe477bce	-0.19480821
